app/src/main/ml/model.tflite (tflite, 763144 bytes, 5 tensors)

sequential/dense/BiasAdd/ReadVariableOp/resource f4 [16]
0	0x3db6ea1a	0.0893137
1	0x3d80959a	0.06278534
2	0x3e3b66b8	0.18300903
3	0xbd522e77	-0.051313844
4	0xbe610402	-0.21974185
5	0xbdceb295	-0.100926556
6	0x3ec898b3	0.39179
7	0xbdde42e9	-0.10852606
8	0xbce6b47c	-0.028162234
9	0x3eb03251	0.34413388
10	0x3e56b377	0.20966898
11	0x3dc98f9c	0.098418444
12	0xbe88be9b	-0.2670792
13	0x3e9ae40c	0.3025211
14	0x3e67ba2a	0.2262961
15	0x3eb562cb	0.35426936

sequential/dense_1/BiasAdd/ReadVariableOp/resource f4 [16]
0	0x3f194bb8	0.5988116
1	0xbf98c59e	-1.1935308
2	0xbf1eee4f	-0.6208238
3	0xbea81c13	-0.3283392
4	0x3cc56881	0.024097683
5	0x3eca816f	0.39551875
6	0xbd9460de	-0.072450384
7	0x3ddd355c	0.10801193
8	0x3f49bea8	0.78806543
9	0x3f1944f8	0.5987086
10	0x3e21cde0	0.15801191
11	0xbec36d83	-0.38169488
12	0xbf1acdb7	-0.60470146
13	0xbf421cb0	-0.75825024
14	0xc006d745	-2.106889
15	0xc009420a	-2.1446557

sequential/embedding/embedding_lookup/86099 f4 [10003, 16]
0	0x3dd6f1aa	0.104953125
1	0xbe1fa35b	-0.15589659
2	0x3da10dcc	0.0786396
3	0xbc4829f4	-0.012217034
4	0xbcb013c0	-0.021493793
5	0xbd9ad104	-0.07559398
6	0x3dae20d2	0.08502354
7	0xbcbf4fd6	-0.023353498
8	0xbdc2df91	-0.09515298
9	0x3b6199c8	0.0034423936
10	0xbd22fff8	-0.039794892
11	0x3b39e4fd	0.0028365247
12	0xbd110800	-0.03540802
13	0x3c42109a	0.011844778
14	0xbc2516fd	-0.010076282
15	0x3bf45b43	0.0074571683
16	0x3ee5b481	0.44864276
17	0x3d1309b6	0.035897933
18	0xbe21bf21	-0.15795566
19	0xbd830e93	-0.06399264
20	0xbefb8596	-0.49125355
21	0x3c058a47	0.008150644
22	0x3efc39f6	0.4926297
23	0x3ea3ec54	0.32016242
24	0x3e1bac52	0.15202454
25	0xbee3e26c	-0.44508684
26	0x3dd97add	0.106191374
27	0xbba11376	-0.00491565
28	0xbd07f4ec	-0.03319256
29	0xbe6242cd	-0.22095795
30	0xbded1305	-0.11575893
31	0x3e80b8b1	0.25140908
32	0xbf284847	-0.65735286
33	0xbd12f1a1	-0.035874967
34	0xbee59e33	-0.4484726
35	0xbebf4a8b	-0.3736156
36	0x3e59e5c4	0.21279055
37	0x3e3dc538	0.18532264
38	0x3ddda2df	0.10822081
39	0xbe790b12	-0.24320629
40	0xbe5f05bd	-0.21779533
41	0xbde1710e	-0.110078916
42	0xbdd64751	-0.10462821
43	0xbd764325	-0.060122628
44	0x3f022ed4	0.50852704
45	0x3ece6279	0.40309504
46	0xbf273aba	-0.65323985
47	0x3f064e8e	0.52463615
48	0xbe7b54fc	-0.24544138
49	0x3dbd20c8	0.09234768
50	0xbf1f660e	-0.622651
51	0xbe161d5e	-0.1465964
52	0xbdf50ecb	-0.11965712
53	0x3e2a7ca8	0.16649115
54	0xbcb0c18b	-0.021576663
55	0xbe27231a	-0.16321984
56	0x3ebcd8aa	0.36884052
57	0xbe7407c1	-0.23831083
58	0xbd4d91f9	-0.05018804
59	0xbe4a7751	-0.19772078
60	0xbcb937ce	-0.022609618
61	0xbefac428	-0.4897778
62	0xbcef94cd	-0.029245758
63	0x3f007b6d	0.5018833
64	0x3ca518c5	0.020153413
65	0x3e0ac6fa	0.13552466
66	0xbef0707d	-0.46960822
67	0xbd56c658	-0.05243525
68	0xbecf2f89	-0.40465954
69	0xbe46212a	-0.19348589
70	0x3e402b56	0.18766531
71	0xbb33a27e	-0.0027410085
72	0x3e6d0783	0.23147397
73	0xbed481fa	-0.41505414
74	0xbe5fc9f1	-0.21854378
75	0x3d1a3852	0.037651367
76	0x3da9503e	0.08267258
77	0xbec7c624	-0.39018357
78	0xbacf3c91	-0.0015810897
79	0x3e920a4d	0.28523484
80	0x3d12f751	0.03588039
81	0xbdab2f50	-0.083586335
82	0xbf18dad0	-0.5970888
83	0x3e932e8c	0.2874645
84	0xbea66fb5	-0.325071
85	0xbd0e4138	-0.034730166
86	0x3ebd27c0	0.3694439
87	0x3d60ebed	0.054912496
88	0xba1d8917	-0.00060095027
89	0xbf365f72	-0.7123939
90	0x3d9b365e	0.07578729
91	0x3e965cf3	0.2936779
92	0x3eb03ab6	0.34419793
93	0xbe1c30eb	-0.15253036
94	0x3c6247a1	0.013811023
95	0x3ede7d52	0.43454987
96	0x3ea2b9b3	0.31782302
97	0xbda4ff80	-0.08056545
98	0xbeab6020	-0.33471775
99	0xbea2105c	-0.31653106
100	0xbde1b106	-0.11020093
101	0x3e199b75	0.15000708
102	0x3ed62419	0.41824415
103	0x3d7d04d8	0.061772197
104	0xbe4f2830	-0.20230174
105	0xbebd9094	-0.37024367
106	0xbcdb9caa	-0.026808102
107	0xbe0cd688	-0.13753712
108	0xbe49d996	-0.19711909
109	0xbea2adcb	-0.3177322
110	0xbd1fbec8	-0.039000303
111	0x3e052a59	0.13004436
112	0x3e37d4e2	0.17952302
113	0xbda86fb8	-0.08224434
114	0xbf10de04	-0.5658877
115	0xbebca76d	-0.36846486
116	0xbebc1222	-0.36732584
117	0x3d9c03c5	0.076179065
118	0x3ec2bdae	0.3803534
119	0x3e529fc9	0.20568766
120	0xbd15fea8	-0.036619812
121	0xbf222e59	-0.6335197
122	0xbe1a182d	-0.15048285
123	0xbe86b712	-0.26311547
124	0xbe8020dc	-0.2502507
125	0xbf4abbb6	-0.79192674
126	0x3e23bfbd	0.15991111
127	0x3efc90c6	0.49329203
128	0x3e6d6014	0.23181182
129	0xbed549a0	-0.41657734
130	0xbe9c29c0	-0.30500603
131	0xbe4fd0d1	-0.20294501
132	0xbe152655	-0.14565404
133	0x3d1d9d69	0.038480196
134	0x3e981ff2	0.29711872
135	0xbc27e6bb	-0.0102478815
136	0xbed4f048	-0.4158957
137	0xbec0253c	-0.37528408
138	0xbe0e6467	-0.13905488
139	0xbe1f68aa	-0.1556727
140	0xbc7e38cc	-0.015516471
141	0xbcb273bc	-0.021783702
142	0xbcc02587	-0.023455394
143	0x3ed05c43	0.4069539
144	0xbecc1df4	-0.39866602
145	0xbd9bfc8f	-0.07616531
146	0xbe641831	-0.22274853
147	0xbeacbf93	-0.3373991
148	0xbda40b3d	-0.08009956
149	0x3de127fe	0.10993956
150	0x3d8386a5	0.06422166
151	0x3d187a9f	0.037226316
152	0x3e00f24f	0.12592433
153	0xbeb22f86	-0.34801883
154	0x3e00f2e9	0.12592663
155	0xbe50ff7a	-0.20409957
156	0xbca6a1b1	-0.020340772
157	0xbe8976df	-0.26848504
158	0xbe2d802a	-0.16943422
159	0x3d7c46d0	0.06159097
160	0xbe912379	-0.28347376
161	0x3d4f459d	0.050603498
162	0xbea35f72	-0.31908756
163	0xbe491641	-0.19637395
164	0xbd41377c	-0.047172055
165	0xbe838642	-0.25688368
166	0x3d7715ce	0.06032353
167	0xbe050011	-0.12988307
168	0x3b93200f	0.0044899057
169	0xbe89cf88	-0.26916146
170	0xbe079aa5	-0.13242586
171	0x3dc787c8	0.09742695
172	0x3b95f5ab	0.004576405
173	0x3e684866	0.22683868
174	0xbde2cd16	-0.11074273
175	0x3e844a0b	0.2583774
176	0xbf53b49e	-0.82697475
177	0xbeb9105c	-0.36145294
178	0xbed203ca	-0.41018516
179	0xbe9d09c4	-0.30671513
180	0x3f005ead	0.50144464
181	0xbe7c163e	-0.2461786
182	0xbea9e2b3	-0.3318077
183	0xbecc74a3	-0.39932737
184	0xbe74eff9	-0.23919667
185	0x3e97cc9f	0.296483
186	0xbe59d9fd	-0.21274562
187	0x3d965ac6	0.073415324
188	0x3ec86605	0.39140335
189	0x3f89ff59	1.0781051
190	0xbf63887f	-0.8888015
191	0x3f0385eb	0.5137622
192	0xbea1646e	-0.31521934
193	0xbeeaabfa	-0.45834333
194	0xbeab9dd8	-0.33518863
195	0x3c8e90ba	0.017402995
196	0x3e6c5ad3	0.23081522
197	0xbbdea6cd	-0.0067947865
198	0xbdd9936f	-0.10623824
199	0xbe30ecdb	-0.17277853
200	0xbf1b4bc4	-0.60662484
201	0xbdf40434	-0.11914864
202	0x3dfe27b3	0.12409916
203	0x3dd3e71c	0.10346815
204	0x3e6da303	0.23206715
205	0xbea018b3	-0.31268844
206	0x3e6475a8	0.22310507
207	0x3e7647fd	0.24050899
208	0x3ece4f43	0.40294847
209	0xbe6a7135	-0.22894748
210	0xbef61153	-0.48060092
211	0xbbc5c7ae	-0.0060357666
212	0x3da2fb24	0.079580575
213	0x3e8c8405	0.27444473
214	0x3e0f6447	0.14003097
215	0xbe2212e4	-0.15827519
216	0xbeac90c0	-0.33704185
217	0xbde4c858	-0.11171025
218	0x3d579503	0.052632343
219	0xbcb5dc0a	-0.02219965
220	0x3d6589ac	0.056039497
221	0x3dbd077f	0.092299454
222	0xbe923560	-0.28556347
223	0x3e573f08	0.21020138
224	0x3f865fd3	1.0497993
225	0xbdcb9a6b	-0.09941562
226	0xbeb07180	-0.34461594
227	0xbeaba83b	-0.33526787
228	0x3c80144a	0.015634675
229	0xbe828e09	-0.2549899
230	0x3ef38e6d	0.475696
231	0x3e11da31	0.1424339
232	0xbf1fe43a	-0.6245762
233	0xbe980625	-0.29692188
234	0x3f175110	0.59108067
235	0x3c934187	0.017975582
236	0xbf095659	-0.5364738
237	0xbee06bd6	-0.43832272
238	0x3f0af4a5	0.5427955
239	0x3e5b27a8	0.21401846
240	0xbe07838e	-0.13233778
241	0xbe71b8cc	-0.2360565
242	0xbe70a570	-0.2350061
243	0xbe5202a1	-0.20508815
244	0xbce4d827	-0.0279351
245	0xbd2e7fbc	-0.042602286
246	0xbd55ded7	-0.05221447
247	0xbc85aa18	-0.016316459
248	0xbe0b1202	-0.13581088
249	0xbe2d2d59	-0.1691183
250	0xbe0007c6	-0.12502965
251	0xbe23380d	-0.1593935
252	0xbce116a3	-0.027476614
253	0xbe543f2d	-0.20727225
254	0xbeb4a22d	-0.3527998
255	0x3eec0acd	0.4610199

sequential/dense/MatMul f4 [16, 16]
0	0xbe3eac1b	-0.1862034
1	0x3f20e068	0.62842417
2	0xc07df84b	-3.9682796
3	0x4041ae89	3.0262778
4	0xc028aecf	-2.6356695
5	0xc09a0b7a	-4.813901
6	0x3f988209	1.1914684
7	0x3ffcffca	1.9765561
8	0x3fb6beaa	1.4276936
9	0xbfb57bad	-1.4178368
10	0x3f69d3dd	0.913389
11	0x40336096	2.8027701
12	0x40630230	3.5470085
13	0x401f64a9	2.4905188
14	0xc0425100	-3.0361938
15	0x4101c755	8.111165
16	0xc004f02d	-2.0771592
17	0x3f7161a4	0.9428961
18	0x3f92e9b4	1.147757
19	0x3fc293a3	1.5201305
20	0x405d4f85	3.4579785
21	0xc06d91c7	-3.7120225
22	0xc078ca9d	-3.8873665
23	0xc0d0d9fb	-6.526609
24	0x3fc8d794	1.5690789
25	0x401688c4	2.3520975
26	0xc0c996db	-6.299665
27	0x401ef393	2.4836166
28	0x3f921114	1.1411462
29	0x3e2c46be	0.16823861
30	0x3e6d5d6d	0.2318017
31	0xbfdf250f	-1.7433184
32	0x3f2e0cfd	0.6798857
33	0x3f380163	0.71877116
34	0xbea930ed	-0.3304514
35	0x3da2ba75	0.0794572
36	0x3feed498	1.8658628
37	0xbf456b51	-0.77116877
38	0xbefe2210	-0.49635363
39	0xbfb77165	-1.433148
40	0xbf329458	-0.69757605
41	0x3cea402f	0.028595058
42	0xbf950bcb	-1.1644224
43	0x3fb1a31e	1.3877904
44	0xbed64d68	-0.4185593
45	0xc017e7ba	-2.3735185
46	0x40359533	2.8372314
47	0xbf9bb259	-1.2163802
48	0xbfbe40f1	-1.4863569
49	0xbdf196d4	-0.11796346
50	0x3fae9a0c	1.3640761
51	0x40404fca	3.00487
52	0x40c25047	6.0722995
53	0xbffe0506	-1.9845283
54	0xc090eca4	-4.528887
55	0xc0c5222c	-6.1604214
56	0xbfebbb3e	-1.8416517
57	0x4023ef88	2.5614948
58	0xc035bcec	-2.8396559
59	0x401c23b4	2.4396791
60	0x401b5663	2.4271476
61	0x3ee4aebc	0.44664562
62	0xbee5d5ef	-0.4488978
63	0xbfc0572b	-1.5026602
64	0xbf4dbd1b	-0.8036668
65	0x3f393258	0.72342443
66	0x3daee9b5	0.0854067
67	0x3fe37fb6	1.7773349
68	0x409a8d19	4.829724
69	0xc0911579	-4.533871
70	0xc05c84ef	-3.4456136
71	0xc0e37343	-7.10782
72	0xbea6cfbf	-0.32580373
73	0x401502dd	2.3282998
74	0xc095bbdc	-4.679182
75	0x4033f101	2.8115847
76	0x3fc9b4a1	1.5758249
77	0x3f845ed6	1.0341442
78	0xbf5259c0	-0.821682
79	0xbd303b08	-0.043025047
80	0x3cf7fad5	0.030270973
81	0xc03270cf	-2.7881353
82	0x3f0719fb	0.5277402
83	0x4052fd2f	3.296703
84	0x405eaebe	3.4794154
85	0x40078bda	2.1179109
86	0xc048900e	-3.1337924
87	0x3f86a10c	1.0517898
88	0xc0c820bc	-6.253996
89	0x3f794fda	0.9738747
90	0x40bd70be	5.9200125
91	0x3f479166	0.77956235
92	0x3fd34958	1.6506758
93	0x3f6f786f	0.9354314
94	0xbf002084	-0.50049615
95	0x3f8c3347	1.0953149
96	0xbfa1a9e1	-1.2629968
97	0xbe84413b	-0.25831017
98	0x3f755748	0.95836306
99	0xc0ffb61c	-7.99098
100	0xc082812e	-4.078269
101	0x4071c0a0	3.777382
102	0x3fd2668e	1.6437547
103	0x3f2ef43b	0.68341416
104	0x4023edff	2.5614011
105	0x3dbc8c5d	0.0920646
106	0xbfdd16c0	-1.7272568
107	0xc0ef85e0	-7.485092
108	0xc0112531	-2.267895
109	0xbf49aecb	-0.7878234
110	0xbe1ec600	-0.15505219
111	0xbf3212b5	-0.69559795
112	0x3e917978	0.28412986
113	0x3e0eeebe	0.1395826
114	0x3da2f014	0.079559475
115	0xbe96258c	-0.2932552
116	0x3e7d6223	0.24744467
117	0x3e320923	0.17386298
118	0xbd69b1f8	-0.05705449
119	0x3e5569dc	0.20841163
120	0xbda13d82	-0.0787306
121	0xbe950334	-0.29104006
122	0xbe83c047	-0.25732633
123	0x3ed5f1c4	0.41786015
124	0xbcf39bf3	-0.029737448
125	0xbe80804d	-0.25097886
126	0x3ec930bc	0.39294994
127	0x3e1cbdda	0.15306798
128	0x40a0d3b3	5.025842
129	0xbf31a10c	-0.69386363
130	0x3f8a05f5	1.0783068
131	0xbeac345d	-0.336337
132	0x3e9362b9	0.28786257
133	0x400a0160	2.156334
134	0x3f96c377	1.1778401
135	0x40c97b61	6.296311
136	0xc0576256	-3.365377
137	0x3df780c1	0.12085105
138	0x405ee7fb	3.482909
139	0xbf892f7d	-1.0717617
140	0xbf6b0314	-0.9180157
141	0xbd9a31dc	-0.07529041
142	0xbf0760eb	-0.5288226
143	0xbf738181	-0.9511948
144	0xbee0163d	-0.43766966
145	0x3ff72e0c	1.9310927
146	0xbe8a53c3	-0.2701703
147	0xc08cab76	-4.3959303
148	0xbf2e9e0b	-0.68209904
149	0xbec2f6c9	-0.38078907
150	0x3fb9ba42	1.4509966
151	0xc0072661	-2.1117175
152	0x40144e93	2.3172958
153	0x3efaeb30	0.4900756
154	0xc063e5ce	-3.5609012
155	0xbfaf5dc6	-1.3700492
156	0xbf9a3e71	-1.2050306
157	0xbff9825d	-1.9492909
158	0x3fd59ee9	1.668912
159	0xc011baf5	-2.277036
160	0xc046ecd7	-3.1082056
161	0xc008ca03	-2.1373298
162	0x40b1e810	5.559578
163	0xc04e1699	-3.2201293
164	0x4095b8a7	4.6787906
165	0x407471f0	3.8194542
166	0xc098b757	-4.7723804
167	0xc080f6e0	-4.030136
168	0xc0a5b9b3	-5.1789184
169	0x40227cbe	2.5388637
170	0x400242d5	2.035329
171	0xc02e8ee6	-2.7274718
172	0xbfe36c81	-1.7767488
173	0x3f211615	0.6292432
174	0x3fd59f7e	1.6689298
175	0xc08a9da6	-4.331744
176	0x3e835dc1	0.25657466
177	0xbfe725d7	-1.8058423
178	0xbf7a499e	-0.9776858
179	0xc01bb51e	-2.4329295
180	0x3f595108	0.8488927
181	0x4023ed58	2.5613613
182	0x3e0996ee	0.13436481
183	0x4006000d	2.093753
184	0xc04122a6	-3.0177398
185	0xbe6d3899	-0.23166122
186	0x40038128	2.054758
187	0xc06fa1b6	-3.744245
188	0xba9ff561	-0.0012203866
189	0xbf1d5631	-0.6145964
190	0x3ea9c0e3	0.33154973
191	0x3f0c8b85	0.5490039
192	0xbffff63a	-1.9997017
193	0xbfdeb74c	-1.7399688
194	0x406f7360	3.741417
195	0xbf407690	-0.7518091
196	0x40b6eed9	5.716656
197	0xbeef74eb	-0.4676889
198	0xc0a5c940	-5.1808167
199	0xc094a3ad	-4.64498
200	0xc0ade1f8	-5.433834
201	0x405000b7	3.2500436
202	0xbf58730b	-0.8455054
203	0x3eb9348a	0.36172897
204	0x3e389750	0.18026471
205	0x3fc893fa	1.5670159
206	0x3ef958be	0.48700517
207	0xc04391f9	-3.0557845
208	0x3f57ba0a	0.8426825
209	0x3e0f5dbf	0.14000605
210	0xc086451d	-4.1959367
211	0x40131eef	2.298763
212	0xc021e4dc	-2.5295935
213	0xbf41dca6	-0.7572731
214	0x4072b949	3.792559
215	0x40866b67	4.2006106
216	0x3fb7e6d7	1.4367322
217	0xc024ff93	-2.578099
218	0x406102b5	3.5157902
219	0x40053057	2.0810754
220	0x402522db	2.5802524
221	0x40132e81	2.2997134
222	0xc028b226	-2.6358733
223	0x40a75da4	5.2301807
224	0xc02503fc	-2.5783682
225	0xc0008fba	-2.0087724
226	0x40ae8d1b	5.454725
227	0xc0da042e	-6.81301
228	0x3fbb8b4a	1.4651883
229	0x40d1951e	6.549453
230	0xbfd01cda	-1.6258805
231	0xbfc083dc	-1.504024
232	0xc0455712	-3.0834394
233	0x4007c865	2.121606
234	0x401bfecc	2.4374266
235	0xc0b26697	-5.575023
236	0xc023b357	-2.557821
237	0x3f9d813e	1.2305067
238	0xbf44f5ef	-0.76937765
239	0xc082e637	-4.0906024
240	0xc0437ea4	-3.0546045
241	0x3f989750	1.1921177
242	0xc05d9706	-3.4623427
243	0x400300b8	2.0469189
244	0xc01bb4e0	-2.4329147
245	0xc0a50b9f	-5.1576686
246	0x3ea6bcbd	0.3256587
247	0xbfeaef50	-1.8354282
248	0x40844ca2	4.1343546
249	0xbf633cd7	-0.8876471
250	0xc08ffef9	-4.4998746
251	0x40021522	2.0325398
252	0x40686934	3.631421
253	0x3fced254	1.6157937
254	0xc0154790	-2.3324928
255	0x40c366d8	6.106304

sequential/dense_1/MatMul f4 [16, 16]
0	0xc141ea12	-12.119646
1	0xc1941486	-18.510021
2	0xbc50edac	-0.012751978
3	0xc19567b9	-18.675646
4	0xc19160f5	-18.172342
5	0xc036992d	-2.853099
6	0xbe98f79f	-0.2987642
7	0x3afc9abd	0.001927219
8	0x3f0a8765	0.54112846
9	0x3ee71006	0.45129412
10	0xbf1a9fca	-0.6040007
11	0xbd9678c2	-0.073472515
12	0xc0179bf5	-2.3688939
13	0xc022cc50	-2.5437202
14	0xbeb83634	-0.35978854
15	0xc14aa7a4	-12.665928
16	0xbe8c4406	-0.27395648
17	0x3f22255d	0.6333826
18	0x3fee1868	1.8601198
19	0x3ef0f345	0.470606
20	0x3f0520fe	0.5200347
21	0xbe5cc784	-0.21560484
22	0xc0979f95	-4.73823
23	0xbebd60b3	-0.36987838
24	0xc0875b43	-4.2298903
25	0x3f0fde32	0.5619842
26	0xbf9b0a67	-1.211255
27	0xc08527cf	-4.1611094
28	0x3e962768	0.2932694
29	0xbfda19a9	-1.7039081
30	0xc0d93bb8	-6.78854
31	0xbdf356c4	-0.118817836
32	0x3ebd2d3b	0.3694857
33	0x3f191908	0.5980382
34	0xbfeab50d	-1.8336502
35	0x3e7698c0	0.24081707
36	0x3eef0255	0.46681467
37	0xc054f003	-3.3271492
38	0xc002bb72	-2.0426908
39	0xbef893d6	-0.4855029
40	0xbffe7411	-1.9879171
41	0xbfb5459d	-1.4161869
42	0xc0d40d86	-6.626651
43	0xc08794b7	-4.2369037
44	0xbf795005	-0.97387725
45	0x3ef120f6	0.4709546
46	0xc0bdcd74	-5.9313297
47	0x3e676fae	0.22601196
48	0x3edfe067	0.43725893
49	0xbe6c1b6d	-0.23057337
50	0xc09299e6	-4.5812864
51	0xbf0cb084	-0.5495684
52	0x3dcc9919	0.099901386
53	0xbe1838b5	-0.14865382
54	0xc0c54e3a	-6.165799
55	0xbe75a674	-0.23989278
56	0x3eb771f5	0.3582913
57	0xc1217b7e	-10.092649
58	0xc0eca476	-7.395076
59	0xbf27dac5	-0.6556819
60	0xc0be2f8d	-5.9433045
61	0x3f164c3a	0.5871006
62	0xc0f4ddab	-7.652059
63	0x3e8dbe07	0.27684042
64	0xbd9c7085	-0.07638649
65	0x3ca53d4b	0.020170828
66	0x3ec88760	0.39165783
67	0xbfffbe6d	-1.9979988
68	0xbecfae94	-0.4056288
69	0xc1a1f43b	-20.244253
70	0x3dbd4f29	0.09243614
71	0xbc4d815e	-0.012543051
72	0xbffac56d	-1.95915
73	0x3f94b81a	1.1618683
74	0xc1269119	-10.410424
75	0xbf25ce9b	-0.6476838
76	0xc0f71a31	-7.721947
77	0xbdea6204	-0.11444476
78	0xc12793fe	-10.473631
79	0x3d1bd86a	0.038048185
80	0x3ec15870	0.37762785
81	0xc10e3fd6	-8.890585
82	0xc0ab620f	-5.35572
83	0xc0d8d289	-6.7757
84	0xc001064a	-2.0160089
85	0x3d9ccd11	0.07656301
86	0xbe76df69	-0.24108662
87	0xbd5b319c	-0.053514108
88	0xbfa321e7	-1.2744721
89	0xc029d432	-2.6535764
90	0xc0d5c78b	-6.6806083
91	0x3ee93a80	0.45552444
92	0xc12b8d61	-10.722016
93	0x3f1b9f67	0.60790104
94	0xc09f0cd7	-4.9703174
95	0x3e825cc0	0.25461388
96	0xbfe12495	-1.7589289
97	0xc0c59552	-6.1744776
98	0xbfa99ad7	-1.3250378
99	0xc14be159	-12.7425165
100	0xc11c1655	-9.755452
101	0xc1269382	-10.411013
102	0x3f7fb74f	0.9988908
103	0xbd82b3c0	-0.06381941
104	0xbef60b3b	-0.48055443
105	0x3f91be76	1.1386249
106	0xc03ec130	-2.9805412
107	0x3f7abe49	0.979466
108	0xc16da835	-14.853566
109	0xbf32c2ac	-0.69828296
110	0xbf0cdc36	-0.55023515
111	0xbfa105f3	-1.257994
112	0x3e19aa77	0.15006433
113	0xc11ddf70	-9.86705
114	0xc0ce5661	-6.4480443
115	0xc14028fd	-12.010007
116	0xc1270767	-10.439307
117	0xc0af4624	-5.477312
118	0x3f1ae2db	0.60502404
119	0xbe334cde	-0.17509791
120	0xc02b1f15	-2.673772
121	0xbf0bdc00	-0.5463257
122	0xc051d0cb	-3.2783687
123	0xbefd8cd9	-0.4952152
124	0xc10c518f	-8.769912
125	0x3eef1dc8	0.4670241
126	0xbf850295	-1.0391413
127	0x3e892753	0.26787814
128	0xc0ae67e8	-5.450184
129	0xc160bb32	-14.045702
130	0xbf263d54	-0.6493733
131	0xc1568288	-13.406868
132	0xc15aaef9	-13.667718
133	0xbfb2fb40	-1.3982925
134	0xbec809c1	-0.39069942
135	0xbd785ad4	-0.060633495
136	0x3ebf1b9d	0.37325755
137	0xbe7b7646	-0.24556836
138	0xbec6ae0b	-0.3880466
139	0xbe3749f6	-0.17899308
140	0xc00c945a	-2.1965547
141	0xbfa7c1a7	-1.3105973
142	0xbe926296	-0.2859084
143	0xc1199e1c	-9.601101
144	0xc1838499	-16.439745
145	0xc1010a2f	-8.064986
146	0x3d6350f9	0.055497143
147	0xc1149db8	-9.288506
148	0xc1253398	-10.325096
149	0xc0974715	-4.727427
150	0x3f29268e	0.66074455
151	0xbe0f3664	-0.13985592
152	0x3e548939	0.20755471
153	0x3fd67126	1.675328
154	0x3e34950d	0.17634983
155	0xbeb1b93e	-0.3471164
156	0xbf780966	-0.9688934
157	0xc117ba70	-9.483017
158	0x3eeb95e1	0.46012786
159	0xc166c22d	-14.422406
160	0xc1332e45	-11.198796
161	0xc154d88b	-13.302867
162	0xbfcf7e97	-1.6210507
163	0xc10cc86b	-8.79893
164	0xc14ab330	-12.668747
165	0x3feabf35	1.8339602
166	0x3e28e885	0.16494949
167	0xbec7796f	-0.38959834
168	0x3e80cdc8	0.25157
169	0xbfabcdd5	-1.342219
170	0x3f37ccfb	0.7179715
171	0x3ebb54a6	0.3658802
172	0x3f160e4f	0.58615583
173	0xc0ded8bf	-6.9639583
174	0x3f6f15d6	0.93392694
175	0xc150b9b4	-13.045338
176	0xc11eaa9e	-9.916655
177	0xc010df4a	-2.2636285
178	0xba7d9efe	-0.0009674876
179	0xbf6530fa	-0.8952786
180	0xbff9188c	-1.9460616
181	0x3fdef4e8	1.741849
182	0xbfa27559	-1.2692062
183	0x3dd72f0a	0.10507019
184	0x3d7a1aa4	0.061060563
185	0xbfe2377c	-1.7673182
186	0x3ebee5f4	0.37284815
187	0xbdd9f824	-0.10643032
188	0x3f46930e	0.7756814
189	0xc1168f34	-9.409962
190	0x3e95c646	0.29252833
191	0xc14d922b	-12.848186
192	0xbf817f28	-1.011693
193	0xc0bbe5ee	-5.8718176
194	0xc06969a1	-3.647072
195	0xc021136f	-2.5168111
196	0xc02421dc	-2.5645666
197	0x3fb7e456	1.4366558
198	0xbf0c80b9	-0.54883915
199	0xbed6410f	-0.4184651
200	0xbe69a9c6	-0.2281867
201	0xc06cf0b8	-3.7021923
202	0xbded67c6	-0.11592059
203	0x3e913b28	0.28365445
204	0x3d13b696	0.0360628
205	0xbf4de4b8	-0.8042712
206	0x3cb588b1	0.022159906
207	0xc00f2ec0	-2.2372284
208	0xbfda65c8	-1.7062311
209	0x3e1f2133	0.15540008
210	0xc01aedcb	-2.4207637
211	0xbf4c5469	-0.798163
212	0xbea9eaaa	-0.33186847
213	0xc0b87465	-5.7642083
214	0x3f3e6ed9	0.7438789
215	0xbe8728ed	-0.2639841
216	0xc066aad3	-3.6041763
217	0x3fac312e	1.3452508
218	0xbeac6feb	-0.33679137
219	0xbf944311	-1.1582967
220	0x3c851a43	0.016247874
221	0xc08b079c	-4.344679
222	0xbdfc9d7b	-0.123347245
223	0xbf28c31e	-0.65922725
224	0xc05913a3	-3.3918235
225	0x3f01d24b	0.50711507
226	0x3f564dc7	0.8371243
227	0x3efff330	0.49990225
228	0x3e1ee5c0	0.1551733
229	0x3f5457dc	0.8294656
230	0xbf840a5b	-1.031566
231	0x3cbb7a68	0.022885516
232	0xc0666416	-3.5998588
233	0xbe0d4f84	-0.13799864
234	0x3e4e6275	0.20154746
235	0xbf2a0a07	-0.6642155
236	0x3f51747a	0.81818354
237	0xc14a09e8	-12.6274185
238	0xbd549702	-0.051901825
239	0xbfb79da2	-1.4344981
240	0xbe85d492	-0.2613874
241	0x3e959186	0.29212588
242	0xbfd76ecc	-1.6830688
243	0x3f0727e4	0.52795243
244	0x3ea8d374	0.32973826
245	0x3fe1fd92	1.7655509
246	0xc0b96558	-5.793621
247	0x3eca7c1d	0.39547816
248	0xc046d689	-3.1068442
249	0xc10e1e5f	-8.882415
250	0xbe4fba21	-0.20285846
251	0xbf0fabcb	-0.5612151
252	0x3f1cbc37	0.61224693
253	0xbf504808	-0.8135991
254	0xbf89b0df	-1.0757102
255	0xbed0af0e	-0.40758556
