app/src/main/ml/RAmodel2.tflite (tflite, 2780 bytes, 5 tensors)

dense_1/bias f4 [16]
00000000: c695 69bd acf2 543f 0000 0000 6e6d 21c0
00000010: 6e7b 72bd 0000 0000 98ce 5a3f 89d2 ef3e
00000020: c2fb b9bf 0000 0000 ef12 843f 0000 0000
00000030: 0d27 aebf 0000 0000 0000 0000 edcc bd3e
-0.0570276 0.8318279 0.0 -2.522304 -0.059199743 0.0 0.8547149 0.46840313
-1.4529955 0.0 1.0318278 0.0 -1.3605667 0.0 0.0 0.37070408

dense/bias f4 [16]
00000000: 0000 0000 3580 523f 2762 fb3f 2034 cbbe
00000010: 0000 0000 0000 0000 54a9 ce3f 0000 0000
00000020: 0000 0000 7314 a23f ae79 83bf 0000 0000
00000030: 0000 0000 de91 a9bf 0000 0000 a63e cdbe
0.0 0.8222688 1.9639329 -0.39688206 0.0 0.0 1.6145425 0.0
0.0 1.2662491 -1.0271509 0.0 0.0 -1.324764 0.0 -0.4008686

std.constant f4 [16, 1]
00000000: 1a24 7abe 244b c13e 5706 1cbc bdb9 e23d
00000010: d089 28bd f641 89be 916a 04bc c0bd 9abd
00000020: 680a 13bf 7d69 b33e 8e1f d13e 36bb e8be
00000030: 81a1 88be 0677 333e d487 00bf d812 c53e
-0.24427834 0.3775264 -0.009522996 0.11070583 -0.041147053 -0.26808137 -0.008082048 -0.07555723
-0.57437754 0.3504142 0.40844387 -0.4545533 -0.26685718 0.17525873 -0.5020726 0.3849094

std.constant1 f4 [16, 16]
00000000: 2a7c 473e 8ccb a5be 97f0 47bc d3a8 913e
00000010: d2c7 703e 8025 0a3c 96ab 633e d7c7 af3e
00000020: a6f5 41be d0b1 633c 2c36 21be f0c3 aebc
00000030: 9ded 3dbe 573d a33e b508 883e ee41 78bd
00000040: d8cb adbd 0c93 153e e7c2 133e 533f 52bd
00000050: 803b bb3c 68f0 02be 2e98 bd3e 6062 71bd
00000060: 60ab 94bd 5d24 a73e 377c f53e 2091 babe
00000070: 37ea 983e dd48 a83d 48db 7c3d df9a be3e
00000080: 6631 22be 6c2d ccbe 5c12 22be de40 6bbe
00000090: 3169 d13e 763f 3abe 3838 c3bd a8f1 69bd
000000a0: 2bb0 abbe c1f1 d9be 32d2 553e 26ed 1e3e
000000b0: 00bd 7e3c 1451 aa3d e22f 7d3e f24d 02be
000000c0: 2c9f de3d bff0 ab3c 9cb4 50bf 860a 4d3e
000000d0: 6877 97be ff01 883e baf5 b6bf c82a 293d
000000e0: 1c64 d13d 91e4 c5bd c07b 9fbd fecf 283e
000000f0: 8705 d8be 12a6 a53e 35ef c63e da94 803e
00000100: 5f8b 883e 30df c6bd 654d b53e 73d3 c8be
00000110: 58ed 23be 4c2b d03d 179d 8fbe 9e59 2e3e
00000120: 5024 fabc 073e 00be 80e6 04bb 9628 003e
00000130: 6e5d 183e 2463 b23d 18ba 53be 6dc5 b9be
00000140: 1426 973d 0034 ff3b b0e7 e0bd 6847 703d
00000150: feb6 6c3e 2ae7 a4be a8d5 cebe a3c8 b13e
00000160: 1ff8 6dbe ae67 a3be ef34 c2be f8e9 6e3d
00000170: 74e2 87be 94f8 e0bd b0f4 743d 584d 63bd
00000180: d9cd c83e d274 063e b9e0 f7bd b00e e7bd
00000190: e3f4 a73e c5da 8d3e 569a 9a3d e19f 9a3e
000001a0: 70a5 34bd 6958 df3b f7f1 a43d 3225 25be
000001b0: ad0f 9d3e 3b59 bdbe 0f9c 993e b849 793e
000001c0: eb90 d6be cbf8 eabe cc82 403f f53d e2bf
000001d0: a0b9 343c 9353 8a3e 2190 483f cc5e 00be
000001e0: a1f2 a03e af78 dcbd f5d2 b9bf f668 253e
000001f0: 65c8 b9be bf7b cabf dc70 b63d 1870 55bf
00000200: e107 cdbe a742 d4bd 9843 24bf a834 0abd
00000210: 009a eabc 16b4 023e 1568 03bf f6f6 2b3e
00000220: ab99 6abe 4940 87be cb27 f63e 84e2 cd3d
00000230: 70e6 03be cc5e c23e bc74 933d aa6b 493e
00000240: 002d a0bc d902 ddbe c05d cdbb 55ac bf3e
00000250: 5aed 97be 9828 04bd 10e6 a83c 680b 35bd
00000260: 3830 b8bd 31c3 dcbe 5080 233d 938f 97be
00000270: d8a7 d9be f987 77be bfee c93e 65ab ca3e
00000280: 2d5d bf3e 2adb b83e 31b5 063f 714c 7ebe
00000290: 2cd1 eb3d 6776 bb3e 0087 90bd 141f cd3d
000002a0: 699e 9f3e 6271 873b 8121 9abe cbed b53e
000002b0: 626c 3d3e aa97 d1bd fa2b 71be 1ce4 553d
000002c0: 291e 963e f781 70be cf82 59be 64f1 91be
000002d0: 90d6 e7bd 80a3 66be 1a8e c6be 2a9a abbe
000002e0: 040e 6bbe d015 96be a2a2 213e ffd7 cbbe
000002f0: c01c c8bb 9dd7 993e 206a 87bc 2b3b 70be
00000300: be3a 87be 7fe0 8c3e 2e07 52bf 2977 623e
00000310: 2653 2b3e c241 103e 3e2d c6be a18c ad3e
00000320: fb8b db3e cba6 f4be 1172 113e eac4 b0be
00000330: 61ce db3e 9b50 2b3e 04a8 aa3d 5c82 123e
00000340: e80e b4be f638 72be 3925 953e 0262 073e
00000350: 041c d43d 1cae d2bd ec39 22be 08a0 02be
00000360: 362f 523e 24e5 5bbe ee15 2f3e 800b cdbb
00000370: de06 3b3e e054 acbe c620 57be 504b 65bd
00000380: b872 b7be 61c0 c5be 82cf 8fbe fdb0 813e
00000390: 8c72 dabe 7848 aabd 3978 be3e 005f 793c
000003a0: cd1e d03e 22b9 073e 96b6 87be aeed 123e
000003b0: cfa5 973e 3632 193e 21d3 70be 00e9 1e3d
000003c0: d851 d3bd 0e45 b8be 7eb5 363e 9152 c53e
000003d0: 568a 14be 48aa 9cbd 23f6 acbe e349 c83e
000003e0: 6aad 103e e075 e63e f07f e83e 88fc 3e3d
000003f0: 0a58 64be d676 b8be 404a 8abd 11aa a9be
0.19480959 -0.32381856 -0.012203357 0.28449115 0.23513725 0.008431792 0.22233424 0.34332153
-0.18941364 0.013897374 -0.15743321 -0.021333665 -0.18547674 0.31882736 0.26569143 -0.06060975
-0.08486146 0.14606875 0.14429818 -0.051329922 0.02285552 -0.1278702 0.37030166 -0.05893171
-0.0725925 0.3264493 0.4794633 -0.36438847 0.29866192 0.082170226 0.06173256 0.37227532
-0.15839157 -0.39878404 -0.15827316 -0.22973964 0.40900567 -0.18188271 -0.09532207 -0.057115227
-0.33532843 -0.42567256 0.20880964 0.15520152 0.015547991 0.08316246 0.24725297 -0.12725046
0.108702034 0.02098882 -0.8152559 0.20023546 -0.29583287 0.26564023 -1.429374 0.041300565
0.102241725 -0.09662736 -0.07787275 0.16485593 -0.42191717 0.32353264 0.38854375 0.25113565
0.26668832 -0.097105384 0.3541061 -0.39223823 -0.16008508 0.10164508 -0.28049538 0.17026374
-0.030534893 -0.12523662 -0.002027899 0.12515482 0.1487939 0.08710316 -0.20676458 -0.36283436
0.0738031 0.0077881813 -0.10981691 0.05866185 0.23116681 -0.32207614 -0.40397382 0.34723386
-0.23239182 -0.3191504 -0.3793101 0.0583286 -0.26539958 -0.109849125 0.059803665 -0.055493683
0.3921955 0.13130501 -0.12103409 -0.11282098 0.3280402 0.2770597 0.075489685 0.30200103
-0.044103086 0.0068159592 0.08053964 -0.1612747 0.30676022 -0.3698214 0.30001876 0.24344528
-0.4190744 -0.4589294 0.7519958 -1.7675158 0.011030585 0.27016887 0.78344923 -0.12536162
0.3143511 -0.10765206 -1.4517504 0.1615332 -0.362857 -1.5819014 0.08908245 -0.83374166
-0.40045074 -0.103642754 -0.6416564 -0.033741623 -0.028637886 0.1276401 -0.5133069 0.16793427
-0.22910182 -0.26416233 0.48077235 0.1005297 -0.12880874 0.3796295 0.072 0.19669977
-0.019552708 -0.43166235 -0.0062672794 0.37436166 -0.29673272 -0.032265276 0.020617515 -0.04420033
-0.08993572 -0.4311767 0.03991729 -0.29601726 -0.42510867 -0.24172963 0.3943996 0.3958389
0.37375775 0.3610471 0.52620226 -0.24833848 0.11514506 0.3661377 -0.07056999 0.10015693
0.31175545 0.0041333893 -0.30103686 0.35532984 0.18498376 -0.10234006 -0.23551932 0.052219495
0.29319885 -0.23487078 -0.21241306 -0.2850448 -0.113202214 -0.22523308 -0.3878029 -0.33516055
-0.22954565 -0.29313517 0.15784696 -0.3981323 -0.006106943 0.30047312 -0.016530097 -0.23460071
-0.26412004 0.27515027 -0.82042205 0.22115768 0.16730937 0.14087585 -0.38706392 0.33896354
0.42880234 -0.47783503 0.14203669 -0.34525234 0.42930892 0.16729967 0.08332828 0.1430754
-0.35167623 -0.23654541 0.2912996 0.13220981 0.10356906 -0.10287115 -0.15842408 -0.1275636
0.20525822 -0.21474129 0.1709821 -0.0062574744 0.18264338 -0.33658504 -0.21008596 -0.055980027
-0.3582971 -0.38623336 -0.28088003 0.25330344 -0.42665517 -0.083146036 0.37201098 0.015220404
0.406485 0.13254216 -0.2650649 0.1434848 0.2961869 0.1496056 -0.2351804 0.038796425
-0.10318345 -0.35990185 0.17842671 0.38539556 -0.14505896 -0.07649666 -0.33781537 0.3911887
0.14128652 0.45011806 0.4541011 0.04662755 -0.22299209 -0.36028165 -0.06752443 -0.33137563

std.constant2 f4 [1, 16]
00000000: 33d2 b8bd 6db1 e43e ecde e93e 94f9 1bbf
00000010: 4896 c7be 409e 433d 2547 9b3e 7ef9 0540
00000020: 0e56 47bf 30fe 543e 0d3e 0c3d 88d7 173f
00000030: f7f1 f5bc 1423 5b3e 2c90 ab3e 4786 293e
-0.09024467 0.44666615 0.45677888 -0.609277 -0.38981843 0.04775834 0.30327716 2.0933528
-0.77865684 0.2080009 0.034238864 0.5931325 -0.030022604 0.214001 0.33508432 0.16555129
